x_train shape: (34799, 32, 32, 3)
y_train shape: (34799,)
x_valid shape: (4410, 32, 32, 3)
y_valid shape: (4410,)
x_test shape: (12630, 32, 32, 3)
y_test shape: (12630,)
Number of unique classes: 43
True
----------------------------------------------------------------
        Layer (type)               Output Shape         Param #
================================================================
            Conv2d-1           [64, 64, 55, 55]          23,296
              ReLU-2           [64, 64, 55, 55]               0
         MaxPool2d-3           [64, 64, 27, 27]               0
            Conv2d-4          [64, 192, 27, 27]         307,392
              ReLU-5          [64, 192, 27, 27]               0
         MaxPool2d-6          [64, 192, 13, 13]               0
            Conv2d-7          [64, 384, 13, 13]         663,936
              ReLU-8          [64, 384, 13, 13]               0
            Conv2d-9          [64, 256, 13, 13]         884,992
             ReLU-10          [64, 256, 13, 13]               0
           Conv2d-11          [64, 256, 13, 13]         590,080
             ReLU-12          [64, 256, 13, 13]               0
        MaxPool2d-13            [64, 256, 6, 6]               0
AdaptiveAvgPool2d-14            [64, 256, 6, 6]               0
           Linear-15                 [64, 2048]      18,876,416
             ReLU-16                 [64, 2048]               0
           Linear-17                 [64, 2048]       4,196,352
             ReLU-18                 [64, 2048]               0
           Linear-19                   [64, 43]          88,107
================================================================
Total params: 25,630,571
Trainable params: 25,630,571
Non-trainable params: 0
----------------------------------------------------------------
Input size (MB): 36.75
Forward/backward pass size (MB): 525.27
Params size (MB): 97.77
Estimated Total Size (MB): 659.79
----------------------------------------------------------------
Epoch [0/19] - Training Loss: 0.0343, Training Accuracy: 34.83%, Validation Loss: 0.0188, Validation Accuracy: 61.00%
…
