x_train shape: (34799, 32, 32, 3)
y_train shape: (34799,)
x_valid shape: (4410, 32, 32, 3)
y_valid shape: (4410,)
x_test shape: (12630, 32, 32, 3)
y_test shape: (12630,)
Number of unique classes: 43
True
----------------------------------------------------------------
        Layer (type)               Output Shape         Param #
================================================================
            Conv2d-1           [64, 64, 55, 55]          23,296
              ReLU-2           [64, 64, 55, 55]               0
         MaxPool2d-3           [64, 64, 27, 27]               0
            Conv2d-4          [64, 192, 27, 27]         307,392
              ReLU-5          [64, 192, 27, 27]               0
         MaxPool2d-6          [64, 192, 13, 13]               0
            Conv2d-7          [64, 256, 13, 13]         442,624
              ReLU-8          [64, 256, 13, 13]               0
            Conv2d-9          [64, 256, 13, 13]         590,080
             ReLU-10          [64, 256, 13, 13]               0
        MaxPool2d-11            [64, 256, 6, 6]               0
AdaptiveAvgPool2d-12            [64, 256, 6, 6]               0
           Linear-13                  [64, 100]         921,700
             ReLU-14                  [64, 100]               0
          Dropout-15                  [64, 100]               0
           Linear-16                  [64, 100]          10,100
             ReLU-17                  [64, 100]               0
           Linear-18                   [64, 43]           4,343
================================================================
Total params: 2,299,535
Trainable params: 2,299,535
Non-trainable params: 0
----------------------------------------------------------------
Input size (MB): 36.75
Forward/backward pass size (MB): 458.14
Params size (MB): 8.77
Estimated Total Size (MB): 503.66
----------------------------------------------------------------
Epoch [0/59] - Training Loss: 0.0420, Training Accuracy: 21.27%, Validation Loss: 0.0292, Validation Accuracy: 35.56%
…
