x_train shape: (34799, 32, 32, 3)
y_train shape: (34799,)
x_valid shape: (4410, 32, 32, 3)
y_valid shape: (4410,)
x_test shape: (12630, 32, 32, 3)
y_test shape: (12630,)
Number of unique classes: 43
True
----------------------------------------------------------------
        Layer (type)               Output Shape         Param #
================================================================
            Conv2d-1          [64, 192, 55, 55]          69,888
              ReLU-2          [64, 192, 55, 55]               0
         MaxPool2d-3          [64, 192, 27, 27]               0
            Conv2d-4          [64, 256, 27, 27]         442,624
              ReLU-5          [64, 256, 27, 27]               0
            Conv2d-6          [64, 256, 27, 27]         590,080
              ReLU-7          [64, 256, 27, 27]               0
         MaxPool2d-8          [64, 256, 13, 13]               0
 AdaptiveAvgPool2d-9            [64, 256, 6, 6]               0
           Linear-10                  [64, 100]         921,700
             ReLU-11                  [64, 100]               0
          Dropout-12                  [64, 100]               0
           Linear-13                  [64, 100]          10,100
             ReLU-14                  [64, 100]               0
           Linear-15                   [64, 43]           4,343
================================================================
Total params: 2,038,735
Trainable params: 2,038,735
Non-trainable params: 0
----------------------------------------------------------------
Input size (MB): 36.75
Forward/backward pass size (MB): 1025.92
Params size (MB): 7.78
Estimated Total Size (MB): 1070.45
----------------------------------------------------------------
Epoch [0/59] - Training Loss: 0.0413, Training Accuracy: 23.40%, Validation Loss: 0.0293, Validation Accuracy: 39.46%
…
