x_train shape: (34799, 32, 32, 3)
y_train shape: (34799,)
x_valid shape: (4410, 32, 32, 3)
y_valid shape: (4410,)
x_test shape: (12630, 32, 32, 3)
y_test shape: (12630,)
Number of unique classes: 43
True
----------------------------------------------------------------
        Layer (type)               Output Shape         Param #
================================================================
            Conv2d-1          [64, 256, 55, 55]          93,184
              ReLU-2          [64, 256, 55, 55]               0
         MaxPool2d-3          [64, 256, 27, 27]               0
            Conv2d-4          [64, 256, 27, 27]         590,080
              ReLU-5          [64, 256, 27, 27]               0
         MaxPool2d-6          [64, 256, 13, 13]               0
 AdaptiveAvgPool2d-7            [64, 256, 6, 6]               0
            Linear-8                  [64, 100]         921,700
              ReLU-9                  [64, 100]               0
          Dropout-10                  [64, 100]               0
           Linear-11                  [64, 100]          10,100
             ReLU-12                  [64, 100]               0
           Linear-13                   [64, 43]           4,343
================================================================
Total params: 1,619,407
Trainable params: 1,619,407
Non-trainable params: 0
----------------------------------------------------------------
Input size (MB): 36.75
Forward/backward pass size (MB): 1055.52
Params size (MB): 6.18
Estimated Total Size (MB): 1098.44
----------------------------------------------------------------
Epoch [0/59] - Training Loss: 0.0397, Training Accuracy: 24.33%, Validation Loss: 0.0320, Validation Accuracy: 33.70%
…
