----------------------------------------------------------------
        Layer (type)               Output Shape         Param #
================================================================
            Conv2d-1          [64, 256, 55, 55]          93,184
              ReLU-2          [64, 256, 55, 55]               0
         MaxPool2d-3          [64, 256, 27, 27]               0
 AdaptiveAvgPool2d-4            [64, 256, 6, 6]               0
            Linear-5                  [64, 100]         921,700
              ReLU-6                  [64, 100]               0
           Dropout-7                  [64, 100]               0
            Linear-8                  [64, 100]          10,100
              ReLU-9                  [64, 100]               0
           Linear-10                   [64, 43]           4,343
================================================================
Total params: 1,029,327
Trainable params: 1,029,327
Non-trainable params: 0
----------------------------------------------------------------
Input size (MB): 36.75
Forward/backward pass size (MB): 852.14
Params size (MB): 3.93
Estimated Total Size (MB): 892.82
----------------------------------------------------------------
Epoch [0/59] - Training Loss: 0.0389, Training Accuracy: 25.49%, Validation Loss: 0.0320, Validation Accuracy: 32.24%
…
